Model Summary: SpeechRecognitionModel(
  (conv1): Conv2dBlock(
    (conv): Conv2d(1, 32, kernel_size=(5, 5), stride=(1, 1), padding=(2, 2))
    (layer_norm): Sequential(
      (0): LayerNorm((80,), eps=1e-05, elementwise_affine=True)
      (1): ReLU()
      (2): Dropout(p=0.1, inplace=False)
    )
  )
  (conv2): Conv2dBlock(
    (conv): Conv2d(32, 32, kernel_size=(3, 3), stride=(1, 1), padding=(1, 1))
    (layer_norm): Sequential(
      (0): LayerNorm((80,), eps=1e-05, elementwise_affine=True)
      (1): ReLU()
      (2): Dropout(p=0.1, inplace=False)
    )
  )
  (conv3): Conv2dBlock(
    (conv): Conv2d(32, 32, kernel_size=(3, 3), stride=(1, 1), padding=(1, 1))
    (layer_norm): Sequential(
      (0): LayerNorm((80,), eps=1e-05, elementwise_affine=True)
      (1): ReLU()
      (2): Dropout(p=0.1, inplace=False)
    )
  )
  (dense): Sequential(
    (0): Linear(in_features=2560, out_features=1280, bias=True)
    (1): GELU(approximate='none')
    (2): Dropout(p=0.2, inplace=False)
    (3): Linear(in_features=1280, out_features=512, bias=True)
  )
  (layer_norm): LayerNorm((512,), eps=1e-05, elementwise_affine=True)
  (gru): GRU(512, 256, batch_first=True, bidirectional=True)
  (fc): Linear(in_features=512, out_features=29, bias=True)
)
Model Parameters: 5152381
Features Shape: torch.Size([32, 501, 80])
Labels Shape: torch.Size([32, 89])
Features Length: tensor([501, 501, 501, 501, 501, 501, 501, 501, 501, 501, 501, 501, 501, 501,
        501, 501, 501, 501, 501, 501, 501, 501, 501, 501, 501, 501, 501, 501,
        501, 501, 501, 501])
Shape: torch.Size([32])
Labels Length: tensor([73, 62, 65, 74, 48, 69, 71, 63, 50, 63, 56, 58, 48, 48, 61, 56, 42, 42,
…
, 6, 6, 6, 6, 6, 6, 6, 6, 6, 6, 6, 6, 6, 6, 6, 6, 6, 6, 6, 6, 6, 6, 6, 6, 6, 6, 6, 6, 6, 6, 6, 6, 6, 6, 6, 6, 6, 6, 6, 6, 6, 6, 6, 6, 6, 6, 6, 6, 6, 6, 6, 6, 6, 6, 6, 6, 6, 6, 6, 6, 6, 6, 6, 6, 6, 6, 6, 6, 6, 6, 6, 6, 6, 6, 6, 6, 6, 6, 6, 6, 6, 6, 6, 6, 6, 6, 6, 6, 6, 6, 6, 6, 6, 6, 6, 6, 6, 6, 6, 6, 6, 6, 6, 6, 6, 6, 6, 6, 6, 6, 6, 6, 6, 6, 6, 6, 6, 6, 6, 6, 6, 6, 6, 6, 6, 6, 6, 6, 6, 6, 6, 6, 6, 6, 6]
----------------------------------------------------------------------------------------------------
[Epoch 1] - [Batch 3 / 13]
Batch Loss: 7.9002
Model Summary: SpeechRecognitionModel(
  (cnn1): Conv2d(1, 32, kernel_size=(3, 3), stride=(2, 2), padding=(1, 1))
  (rescnn_layers): Sequential(
    (0): ResidualCNN(
      (cnn1): Conv2d(32, 32, kernel_size=(3, 3), stride=(1, 1), padding=(1, 1))
      (cnn2): Conv2d(32, 32, kernel_size=(3, 3), stride=(1, 1), padding=(1, 1))
      (dropout1): Dropout(p=0.1, inplace=False)
      (dropout2): Dropout(p=0.1, inplace=False)
      (layer_norm1): CNNLayerNorm(
        (layer_norm): LayerNorm((40,), eps=1e-05, elementwise_affine=True)
      )
      (layer_norm2): CNNLayerNorm(
        (layer_norm): LayerNorm((40,), eps=1e-05, elementwise_affine=True)
      )
    )
    (1): ResidualCNN(
      (cnn1): Conv2d(32, 32, kernel_size=(3, 3), stride=(1, 1), padding=(1, 1))
      (cnn2): Conv2d(32, 32, kernel_size=(3, 3), stride=(1, 1), padding=(1, 1))
      (dropout1): Dropout(p=0.1, inplace=False)
      (dropout2): Dropout(p=0.1, inplace=False)
      (layer_norm1): CNNLayerNorm(
        (layer_norm): LayerNorm((40,), eps=1e-05, elementwise_affine=True)
      )
      (layer_norm2): CNNLayerNorm(
        (layer_norm): LayerNorm((40,), eps=1e-05, elementwise_affine=True)
      )
    )
    (2): ResidualCNN(
      (cnn1): Conv2d(32, 32, kernel_size=(3, 3), stride=(1, 1), padding=(1, 1))
      (cnn2): Conv2d(32, 32, kernel_size=(3, 3), stride=(1, 1), padding=(1, 1))
      (dropout1): Dropout(p=0.1, inplace=False)
      (dropout2): Dropout(p=0.1, inplace=False)
      (layer_norm1): CNNLayerNorm(
        (layer_norm): LayerNorm((40,), eps=1e-05, elementwise_affine=True)
      )
      (layer_norm2): CNNLayerNorm(
        (layer_norm): LayerNorm((40,), eps=1e-05, elementwise_affine=True)
      )
    )
  )
  (fully_connected): Linear(in_features=1280, out_features=512, bias=True)
  (birnn_layers): Sequential(
    (0): BidirectionalGRU(
      (BiGRU): GRU(512, 512, batch_first=True, bidirectional=True)
      (layer_norm): LayerNorm((512,), eps=1e-05, elementwise_affine=True)
      (dropout): Dropout(p=0.1, inplace=False)
    )
    (1): BidirectionalGRU(
      (BiGRU): GRU(1024, 512, bidirectional=True)
      (layer_norm): LayerNorm((1024,), eps=1e-05, elementwise_affine=True)
      (dropout): Dropout(p=0.1, inplace=False)
    )
    (2): BidirectionalGRU(
      (BiGRU): GRU(1024, 512, bidirectional=True)
      (layer_norm): LayerNorm((1024,), eps=1e-05, elementwise_affine=True)
      (dropout): Dropout(p=0.1, inplace=False)
    )
  )
  (classifier): Sequential(
    (0): Linear(in_features=1024, out_features=512, bias=True)
    (1): GELU(approximate='none')
    (2): Dropout(p=0.1, inplace=False)
    (3): Linear(in_features=512, out_features=29, bias=True)
  )
)
Model Parameters: 13858301
Features Shape: torch.Size([32, 501, 80])
Labels Shape: torch.Size([32, 75])
Features Length: tensor([501, 501, 501, 501, 501, 501, 501, 501, 501, 501, 501, 501, 501, 501,
        501, 501, 501, 501, 501, 501, 501, 501, 501, 501, 501, 501, 501, 501,
        501, 501, 501, 501])
Shape: torch.Size([32])
Labels Length: tensor([75, 74, 45, 49, 59, 56, 45, 49, 62, 63, 61, 44, 57, 43, 58, 63, 38, 71,
        50, 64, 52, 50, 53, 54, 72, 74, 36, 63, 51, 58, 71, 72])
Shape: torch.Size([32])
[Epoch 1] - [Batch 1 / 13]
Model Summary: SpeechRecognitionModel(
  (cnn1): Conv2d(1, 32, kernel_size=(3, 3), stride=(2, 2), padding=(1, 1))
  (rescnn_layers): Sequential(
    (0): ResidualCNN(
      (cnn1): Conv2d(32, 32, kernel_size=(3, 3), stride=(1, 1), padding=(1, 1))
      (cnn2): Conv2d(32, 32, kernel_size=(3, 3), stride=(1, 1), padding=(1, 1))
      (dropout1): Dropout(p=0.1, inplace=False)
      (dropout2): Dropout(p=0.1, inplace=False)
      (layer_norm1): CNNLayerNorm(
        (layer_norm): LayerNorm((40,), eps=1e-05, elementwise_affine=True)
      )
      (layer_norm2): CNNLayerNorm(
        (layer_norm): LayerNorm((40,), eps=1e-05, elementwise_affine=True)
      )
    )
    (1): ResidualCNN(
      (cnn1): Conv2d(32, 32, kernel_size=(3, 3), stride=(1, 1), padding=(1, 1))
      (cnn2): Conv2d(32, 32, kernel_size=(3, 3), stride=(1, 1), padding=(1, 1))
      (dropout1): Dropout(p=0.1, inplace=False)
      (dropout2): Dropout(p=0.1, inplace=False)
      (layer_norm1): CNNLayerNorm(
        (layer_norm): LayerNorm((40,), eps=1e-05, elementwise_affine=True)
      )
      (layer_norm2): CNNLayerNorm(
        (layer_norm): LayerNorm((40,), eps=1e-05, elementwise_affine=True)
      )
    )
    (2): ResidualCNN(
      (cnn1): Conv2d(32, 32, kernel_size=(3, 3), stride=(1, 1), padding=(1, 1))
      (cnn2): Conv2d(32, 32, kernel_size=(3, 3), stride=(1, 1), padding=(1, 1))
      (dropout1): Dropout(p=0.1, inplace=False)
      (dropout2): Dropout(p=0.1, inplace=False)
      (layer_norm1): CNNLayerNorm(
        (layer_norm): LayerNorm((40,), eps=1e-05, elementwise_affine=True)
      )
      (layer_norm2): CNNLayerNorm(
        (layer_norm): LayerNorm((40,), eps=1e-05, elementwise_affine=True)
      )
    )
  )
  (fully_connected): Linear(in_features=1280, out_features=512, bias=True)
  (birnn_layers): Sequential(
    (0): BidirectionalGRU(
      (BiGRU): GRU(512, 512, batch_first=True, bidirectional=True)
      (layer_norm): LayerNorm((512,), eps=1e-05, elementwise_affine=True)
      (dropout): Dropout(p=0.1, inplace=False)
    )
    (1): BidirectionalGRU(
      (BiGRU): GRU(1024, 512, bidirectional=True)
      (layer_norm): LayerNorm((1024,), eps=1e-05, elementwise_affine=True)
      (dropout): Dropout(p=0.1, inplace=False)
    )
    (2): BidirectionalGRU(
      (BiGRU): GRU(1024, 512, bidirectional=True)
      (layer_norm): LayerNorm((1024,), eps=1e-05, elementwise_affine=True)
      (dropout): Dropout(p=0.1, inplace=False)
    )
  )
  (classifier): Sequential(
    (0): Linear(in_features=1024, out_features=512, bias=True)
    (1): GELU(approximate='none')
    (2): Dropout(p=0.1, inplace=False)
    (3): Linear(in_features=512, out_features=29, bias=True)
  )
)
Model Parameters: 13858301
Features Shape: torch.Size([32, 501, 80])
Labels Shape: torch.Size([32, 91])
Features Length: tensor([501, 501, 501, 501, 501, 501, 501, 501, 501, 501, 501, 501, 501, 501,
        501, 501, 501, 501, 501, 501, 501, 501, 501, 501, 501, 501, 501, 501,
        501, 501, 501, 501])
Shape: torch.Size([32])
Labels Length: tensor([65, 57, 57, 47, 42, 69, 47, 62, 70, 61, 45, 81, 63, 53, 53, 57, 80, 69,
        62, 58, 56, 43, 65, 58, 91, 46, 57, 52, 62, 66, 53, 42])
Shape: torch.Size([32])
[Epoch 1] - [Batch 1 / 13]
Model Summary: SpeechRecognitionModel(
  (cnn1): Conv2d(1, 32, kernel_size=(3, 3), stride=(2, 2), padding=(1, 1))
  (rescnn_layers): Sequential(
    (0): ResidualCNN(
      (cnn1): Conv2d(32, 32, kernel_size=(3, 3), stride=(1, 1), padding=(1, 1))
      (cnn2): Conv2d(32, 32, kernel_size=(3, 3), stride=(1, 1), padding=(1, 1))
      (dropout1): Dropout(p=0.1, inplace=False)
      (dropout2): Dropout(p=0.1, inplace=False)
      (layer_norm1): CNNLayerNorm(
        (layer_norm): LayerNorm((40,), eps=1e-05, elementwise_affine=True)
      )
      (layer_norm2): CNNLayerNorm(
        (layer_norm): LayerNorm((40,), eps=1e-05, elementwise_affine=True)
      )
    )
    (1): ResidualCNN(
      (cnn1): Conv2d(32, 32, kernel_size=(3, 3), stride=(1, 1), padding=(1, 1))
      (cnn2): Conv2d(32, 32, kernel_size=(3, 3), stride=(1, 1), padding=(1, 1))
      (dropout1): Dropout(p=0.1, inplace=False)
      (dropout2): Dropout(p=0.1, inplace=False)
      (layer_norm1): CNNLayerNorm(
        (layer_norm): LayerNorm((40,), eps=1e-05, elementwise_affine=True)
      )
      (layer_norm2): CNNLayerNorm(
        (layer_norm): LayerNorm((40,), eps=1e-05, elementwise_affine=True)
      )
    )
    (2): ResidualCNN(
      (cnn1): Conv2d(32, 32, kernel_size=(3, 3), stride=(1, 1), padding=(1, 1))
      (cnn2): Conv2d(32, 32, kernel_size=(3, 3), stride=(1, 1), padding=(1, 1))
      (dropout1): Dropout(p=0.1, inplace=False)
      (dropout2): Dropout(p=0.1, inplace=False)
      (layer_norm1): CNNLayerNorm(
        (layer_norm): LayerNorm((40,), eps=1e-05, elementwise_affine=True)
      )
      (layer_norm2): CNNLayerNorm(
        (layer_norm): LayerNorm((40,), eps=1e-05, elementwise_affine=True)
      )
    )
  )
  (fully_connected): Linear(in_features=1280, out_features=512, bias=True)
  (birnn_layers): Sequential(
    (0): BidirectionalGRU(
      (BiGRU): GRU(512, 512, batch_first=True, bidirectional=True)
      (layer_norm): LayerNorm((512,), eps=1e-05, elementwise_affine=True)
      (dropout): Dropout(p=0.1, inplace=False)
    )
    (1): BidirectionalGRU(
      (BiGRU): GRU(1024, 512, bidirectional=True)
      (layer_norm): LayerNorm((1024,), eps=1e-05, elementwise_affine=True)
      (dropout): Dropout(p=0.1, inplace=False)
    )
    (2): BidirectionalGRU(
      (BiGRU): GRU(1024, 512, bidirectional=True)
      (layer_norm): LayerNorm((1024,), eps=1e-05, elementwise_affine=True)
      (dropout): Dropout(p=0.1, inplace=False)
    )
  )
  (classifier): Sequential(
    (0): Linear(in_features=1024, out_features=512, bias=True)
    (1): GELU(approximate='none')
    (2): Dropout(p=0.1, inplace=False)
    (3): Linear(in_features=512, out_features=29, bias=True)
  )
)
Model Parameters: 13858301
Features Shape: torch.Size([32, 501, 80])
Labels Shape: torch.Size([32, 81])
Features Length: tensor([501, 501, 501, 501, 501, 501, 501, 501, 501, 501, 501, 501, 501, 501,
        501, 501, 501, 501, 501, 501, 501, 501, 501, 501, 501, 501, 501, 501,
        501, 501, 501, 501])
Shape: torch.Size([32])
Labels Length: tensor([68, 64, 41, 57, 57, 74, 41, 47, 39, 70, 51, 64, 79, 43, 48, 68, 47, 44,
…
, 0, 0, 0, 0, 0, 0, 0, 0, 0, 0, 0, 0, 0, 0, 0, 0, 0, 0, 0, 0, 0, 0, 0, 0, 0, 0, 0, 0, 0, 0, 0, 0, 0, 0, 0, 0, 0, 0, 0, 0, 0, 0, 0, 0, 0, 0, 0, 0, 0, 0, 0, 0, 0, 0, 0, 0, 0, 0, 0, 0, 0, 0, 0, 0, 0, 0, 0, 0, 0, 0, 0, 0, 0, 0, 0, 0, 0, 0, 0, 0, 0, 0, 0, 0, 0, 0, 0, 0, 0, 0, 0, 0, 0, 0, 0, 0, 0, 0, 0, 0, 0, 0, 0, 0, 0, 0, 0, 0, 0, 0, 0, 0, 0, 0, 0, 0, 0, 0, 0, 0, 0, 0, 0, 0, 0, 0, 0, 0, 0, 0, 0, 0, 0, 0, 0, 0, 0, 0, 0, 0, 0]
----------------------------------------------------------------------------------------------------
[Epoch 1] - [Batch 12 / 13]
Model Summary: SpeechRecognitionModel(
  (cnn1): Conv2d(1, 32, kernel_size=(3, 3), stride=(2, 2), padding=(1, 1))
  (rescnn_layers): Sequential(
    (0): ResidualCNN(
      (cnn1): Conv2d(32, 32, kernel_size=(3, 3), stride=(1, 1), padding=(1, 1))
      (cnn2): Conv2d(32, 32, kernel_size=(3, 3), stride=(1, 1), padding=(1, 1))
      (dropout1): Dropout(p=0.1, inplace=False)
      (dropout2): Dropout(p=0.1, inplace=False)
      (layer_norm1): CNNLayerNorm(
        (layer_norm): LayerNorm((64,), eps=1e-05, elementwise_affine=True)
      )
      (layer_norm2): CNNLayerNorm(
        (layer_norm): LayerNorm((64,), eps=1e-05, elementwise_affine=True)
      )
    )
    (1): ResidualCNN(
      (cnn1): Conv2d(32, 32, kernel_size=(3, 3), stride=(1, 1), padding=(1, 1))
      (cnn2): Conv2d(32, 32, kernel_size=(3, 3), stride=(1, 1), padding=(1, 1))
      (dropout1): Dropout(p=0.1, inplace=False)
      (dropout2): Dropout(p=0.1, inplace=False)
      (layer_norm1): CNNLayerNorm(
        (layer_norm): LayerNorm((64,), eps=1e-05, elementwise_affine=True)
      )
      (layer_norm2): CNNLayerNorm(
        (layer_norm): LayerNorm((64,), eps=1e-05, elementwise_affine=True)
      )
    )
    (2): ResidualCNN(
      (cnn1): Conv2d(32, 32, kernel_size=(3, 3), stride=(1, 1), padding=(1, 1))
      (cnn2): Conv2d(32, 32, kernel_size=(3, 3), stride=(1, 1), padding=(1, 1))
      (dropout1): Dropout(p=0.1, inplace=False)
      (dropout2): Dropout(p=0.1, inplace=False)
      (layer_norm1): CNNLayerNorm(
        (layer_norm): LayerNorm((64,), eps=1e-05, elementwise_affine=True)
      )
      (layer_norm2): CNNLayerNorm(
        (layer_norm): LayerNorm((64,), eps=1e-05, elementwise_affine=True)
      )
    )
  )
  (fully_connected): Linear(in_features=2048, out_features=512, bias=True)
  (birnn_layers): Sequential(
    (0): BidirectionalGRU(
      (BiGRU): GRU(512, 512, batch_first=True, bidirectional=True)
      (layer_norm): LayerNorm((512,), eps=1e-05, elementwise_affine=True)
      (dropout): Dropout(p=0.1, inplace=False)
    )
    (1): BidirectionalGRU(
      (BiGRU): GRU(1024, 512, bidirectional=True)
      (layer_norm): LayerNorm((1024,), eps=1e-05, elementwise_affine=True)
      (dropout): Dropout(p=0.1, inplace=False)
    )
    (2): BidirectionalGRU(
      (BiGRU): GRU(1024, 512, bidirectional=True)
      (layer_norm): LayerNorm((1024,), eps=1e-05, elementwise_affine=True)
      (dropout): Dropout(p=0.1, inplace=False)
    )
    (3): BidirectionalGRU(
      (BiGRU): GRU(1024, 512, bidirectional=True)
      (layer_norm): LayerNorm((1024,), eps=1e-05, elementwise_affine=True)
      (dropout): Dropout(p=0.1, inplace=False)
    )
    (4): BidirectionalGRU(
      (BiGRU): GRU(1024, 512, bidirectional=True)
      (layer_norm): LayerNorm((1024,), eps=1e-05, elementwise_affine=True)
      (dropout): Dropout(p=0.1, inplace=False)
    )
  )
  (classifier): Sequential(
    (0): Linear(in_features=1024, out_features=512, bias=True)
    (1): GELU(approximate='none')
    (2): Dropout(p=0.1, inplace=False)
    (3): Linear(in_features=512, out_features=29, bias=True)
  )
)
Model Parameters: 23705373
Features Shape: torch.Size([32, 401, 128])
Labels Shape: torch.Size([32, 92])
Features Length: tensor([401, 401, 401, 401, 401, 401, 401, 401, 401, 401, 401, 401, 401, 401,
        401, 401, 401, 401, 401, 401, 401, 401, 401, 401, 401, 401, 401, 401,
        401, 401, 401, 401])
Shape: torch.Size([32])
Labels Length: tensor([86, 53, 50, 70, 62, 52, 67, 58, 71, 69, 92, 51, 82, 69, 68, 45, 59, 50,
…
Predicted: [0, 0, 0, 0, 0, 0, 0, 0, 0, 0, 0, 0, 0, 0, 0, 0, 0, 0, 0, 0, 0, 0, 0, 0, 0, 0, 0, 0, 0, 0, 0, 0, 0, 0, 0, 0, 0, 0, 0, 0, 0, 0, 0, 0, 0, 0, 0, 0, 0, 0, 0, 0, 0, 0, 0, 0, 0, 0, 0, 0, 0, 0, 0, 0, 0, 0, 0, 0, 0, 0, 0, 0, 0, 0, 0, 0, 0, 0, 0, 0, 0, 0, 0, 0, 0, 0, 0, 0, 0, 0, 0, 0, 0, 0, 0, 0, 0, 0, 0, 0, 0, 0, 0, 0, 0, 0, 0, 0, 0, 0, 0, 0, 0, 0, 0, 0, 0, 0, 0, 0, 0, 0, 0, 0, 0, 0, 0, 0, 0, 0, 0, 0, 0, 0, 0, 0, 0, 0, 0, 0, 0, 0, 0, 0, 0, 0, 0, 0, 0, 0, 0, 0, 0, 0, 0, 0, 0, 0, 0, 0, 0, 0, 0, 0, 0, 0, 0, 0, 0, 0, 0, 0, 0, 0, 0, 0, 0, 0, 0, 0, 0, 0, 0, 0, 0, 0, 0, 0, 0, 0, 0, 0, 0, 0, 0, 0, 0, 0, 0, 0, 0]
----------------------------------------------------------------------------------------------------
[Epoch 1] - [Batch 11 / 13]
Model Summary: SpeechRecognitionModel(
  (cnn1): Conv2d(1, 32, kernel_size=(3, 3), stride=(2, 2), padding=(1, 1))
  (rescnn_layers): Sequential(
    (0): ResidualCNN(
      (cnn1): Conv2d(32, 32, kernel_size=(3, 3), stride=(1, 1), padding=(1, 1))
      (cnn2): Conv2d(32, 32, kernel_size=(3, 3), stride=(1, 1), padding=(1, 1))
      (dropout1): Dropout(p=0.1, inplace=False)
      (dropout2): Dropout(p=0.1, inplace=False)
      (layer_norm1): CNNLayerNorm(
        (layer_norm): LayerNorm((64,), eps=1e-05, elementwise_affine=True)
      )
      (layer_norm2): CNNLayerNorm(
        (layer_norm): LayerNorm((64,), eps=1e-05, elementwise_affine=True)
      )
    )
    (1): ResidualCNN(
      (cnn1): Conv2d(32, 32, kernel_size=(3, 3), stride=(1, 1), padding=(1, 1))
      (cnn2): Conv2d(32, 32, kernel_size=(3, 3), stride=(1, 1), padding=(1, 1))
      (dropout1): Dropout(p=0.1, inplace=False)
      (dropout2): Dropout(p=0.1, inplace=False)
      (layer_norm1): CNNLayerNorm(
        (layer_norm): LayerNorm((64,), eps=1e-05, elementwise_affine=True)
      )
      (layer_norm2): CNNLayerNorm(
        (layer_norm): LayerNorm((64,), eps=1e-05, elementwise_affine=True)
      )
    )
    (2): ResidualCNN(
      (cnn1): Conv2d(32, 32, kernel_size=(3, 3), stride=(1, 1), padding=(1, 1))
      (cnn2): Conv2d(32, 32, kernel_size=(3, 3), stride=(1, 1), padding=(1, 1))
      (dropout1): Dropout(p=0.1, inplace=False)
      (dropout2): Dropout(p=0.1, inplace=False)
      (layer_norm1): CNNLayerNorm(
        (layer_norm): LayerNorm((64,), eps=1e-05, elementwise_affine=True)
      )
      (layer_norm2): CNNLayerNorm(
        (layer_norm): LayerNorm((64,), eps=1e-05, elementwise_affine=True)
      )
    )
  )
  (fully_connected): Linear(in_features=2048, out_features=512, bias=True)
  (birnn_layers): Sequential(
    (0): BidirectionalGRU(
      (BiGRU): GRU(512, 512, batch_first=True, bidirectional=True)
      (layer_norm): LayerNorm((512,), eps=1e-05, elementwise_affine=True)
      (dropout): Dropout(p=0.1, inplace=False)
    )
    (1): BidirectionalGRU(
      (BiGRU): GRU(1024, 512, batch_first=True, bidirectional=True)
      (layer_norm): LayerNorm((1024,), eps=1e-05, elementwise_affine=True)
      (dropout): Dropout(p=0.1, inplace=False)
    )
    (2): BidirectionalGRU(
      (BiGRU): GRU(1024, 512, batch_first=True, bidirectional=True)
      (layer_norm): LayerNorm((1024,), eps=1e-05, elementwise_affine=True)
      (dropout): Dropout(p=0.1, inplace=False)
    )
    (3): BidirectionalGRU(
      (BiGRU): GRU(1024, 512, batch_first=True, bidirectional=True)
      (layer_norm): LayerNorm((1024,), eps=1e-05, elementwise_affine=True)
      (dropout): Dropout(p=0.1, inplace=False)
    )
    (4): BidirectionalGRU(
      (BiGRU): GRU(1024, 512, batch_first=True, bidirectional=True)
      (layer_norm): LayerNorm((1024,), eps=1e-05, elementwise_affine=True)
      (dropout): Dropout(p=0.1, inplace=False)
    )
  )
  (classifier): Sequential(
    (0): Linear(in_features=1024, out_features=512, bias=True)
    (1): GELU(approximate='none')
    (2): Dropout(p=0.1, inplace=False)
    (3): Linear(in_features=512, out_features=30, bias=True)
  )
)
Model Parameters: 23705886
Features Shape: torch.Size([32, 401, 128])
Labels Shape: torch.Size([32, 81])
Features Length: tensor([401, 401, 401, 401, 401, 401, 401, 401, 401, 401, 401, 401, 401, 401,
        401, 401, 401, 401, 401, 401, 401, 401, 401, 401, 401, 401, 401, 401,
        401, 401, 401, 401])
Shape: torch.Size([32])
Labels Length: tensor([71, 57, 41, 57, 80, 74, 51, 68, 61, 41, 67, 72, 58, 76, 81, 58, 75, 71,
…
Predicted: [0, 0, 0, 0, 0, 0, 0, 0, 0, 0, 0, 0, 0, 0, 0, 0, 0, 0, 0, 0, 0, 0, 0, 0, 0, 0, 0, 0, 0, 0, 0, 0, 0, 0, 0, 0, 0, 0, 0, 0, 0, 0, 0, 0, 0, 0, 0, 0, 0, 0, 0, 0, 0, 0, 0, 0, 0, 0, 0, 0, 0, 0, 0, 0, 0, 0, 0, 0, 0, 0, 0, 0, 0, 0, 0, 0, 0, 0, 0, 0, 0, 0, 0, 0, 0, 0, 0, 0, 0, 0, 0, 0, 0, 0, 0, 0, 0, 0, 0, 0, 0, 0, 0, 0, 0, 0, 0, 0, 0, 0, 0, 0, 0, 0, 0, 0, 0, 0, 0, 0, 0, 0, 0, 0, 0, 0, 0, 0, 0, 0, 0, 0, 0, 0, 0, 0, 0, 0, 0, 0, 0, 0, 0, 0, 0, 0, 0, 0, 0, 0, 0, 0, 0, 0, 0, 0, 0, 0, 0, 0, 0, 0, 0, 0, 0, 0, 0, 0, 0, 0, 0, 0, 0, 0, 0, 0, 0, 0, 0, 0, 0, 0, 0, 0, 0, 0, 0, 0, 0, 0, 0, 0, 0, 0, 0, 0, 0, 0, 0, 0, 0]
----------------------------------------------------------------------------------------------------
[Epoch 1] - [Batch 5 / 13]
Model Summary: SpeechRecognitionModel(
  (cnn1): Conv2d(1, 32, kernel_size=(3, 3), stride=(2, 2), padding=(1, 1))
  (rescnn_layers): Sequential(
    (0): ResidualCNN(
      (cnn1): Conv2d(32, 32, kernel_size=(3, 3), stride=(1, 1), padding=(1, 1))
      (cnn2): Conv2d(32, 32, kernel_size=(3, 3), stride=(1, 1), padding=(1, 1))
      (dropout1): Dropout(p=0.1, inplace=False)
      (dropout2): Dropout(p=0.1, inplace=False)
      (layer_norm1): CNNLayerNorm(
        (layer_norm): LayerNorm((64,), eps=1e-05, elementwise_affine=True)
      )
      (layer_norm2): CNNLayerNorm(
        (layer_norm): LayerNorm((64,), eps=1e-05, elementwise_affine=True)
      )
    )
    (1): ResidualCNN(
      (cnn1): Conv2d(32, 32, kernel_size=(3, 3), stride=(1, 1), padding=(1, 1))
      (cnn2): Conv2d(32, 32, kernel_size=(3, 3), stride=(1, 1), padding=(1, 1))
      (dropout1): Dropout(p=0.1, inplace=False)
      (dropout2): Dropout(p=0.1, inplace=False)
      (layer_norm1): CNNLayerNorm(
        (layer_norm): LayerNorm((64,), eps=1e-05, elementwise_affine=True)
      )
      (layer_norm2): CNNLayerNorm(
        (layer_norm): LayerNorm((64,), eps=1e-05, elementwise_affine=True)
      )
    )
  )
  (fully_connected): Linear(in_features=2048, out_features=512, bias=True)
  (birnn_layers): Sequential(
    (0): BidirectionalGRU(
      (BiGRU): GRU(512, 512, batch_first=True, bidirectional=True)
      (layer_norm): LayerNorm((512,), eps=1e-05, elementwise_affine=True)
      (dropout): Dropout(p=0.1, inplace=False)
    )
    (1): BidirectionalGRU(
      (BiGRU): GRU(1024, 512, batch_first=True, bidirectional=True)
      (layer_norm): LayerNorm((1024,), eps=1e-05, elementwise_affine=True)
      (dropout): Dropout(p=0.1, inplace=False)
    )
  )
  (classifier): Sequential(
    (0): Linear(in_features=1024, out_features=512, bias=True)
    (1): GELU(approximate='none')
    (2): Dropout(p=0.1, inplace=False)
    (3): Linear(in_features=512, out_features=30, bias=True)
  )
)
Model Parameters: 9506782
Features Shape: torch.Size([32, 501, 80])
Labels Shape: torch.Size([32, 83])
Features Length: tensor([501, 501, 501, 501, 501, 501, 501, 501, 501, 501, 501, 501, 501, 501,
        501, 501, 501, 501, 501, 501, 501, 501, 501, 501, 501, 501, 501, 501,
        501, 501, 501, 501])
Shape: torch.Size([32])
Labels Length: tensor([49, 64, 42, 41, 74, 52, 56, 46, 70, 56, 62, 44, 76, 62, 51, 58, 83, 81,
        49, 51, 53, 72, 65, 42, 58, 53, 60, 53, 74, 71, 74, 61])
Shape: torch.Size([32])
[Epoch 1] - [Batch 1 / 13]
Model Summary: SpeechRecognitionModel(
  (cnn1): Conv2d(1, 32, kernel_size=(3, 3), stride=(2, 2), padding=(1, 1))
  (rescnn_layers): Sequential(
    (0): ResidualCNN(
      (cnn1): Conv2d(32, 32, kernel_size=(3, 3), stride=(1, 1), padding=(1, 1))
      (cnn2): Conv2d(32, 32, kernel_size=(3, 3), stride=(1, 1), padding=(1, 1))
      (dropout1): Dropout(p=0.1, inplace=False)
      (dropout2): Dropout(p=0.1, inplace=False)
      (layer_norm1): CNNLayerNorm(
        (layer_norm): LayerNorm((40,), eps=1e-05, elementwise_affine=True)
      )
      (layer_norm2): CNNLayerNorm(
        (layer_norm): LayerNorm((40,), eps=1e-05, elementwise_affine=True)
      )
    )
    (1): ResidualCNN(
      (cnn1): Conv2d(32, 32, kernel_size=(3, 3), stride=(1, 1), padding=(1, 1))
      (cnn2): Conv2d(32, 32, kernel_size=(3, 3), stride=(1, 1), padding=(1, 1))
      (dropout1): Dropout(p=0.1, inplace=False)
      (dropout2): Dropout(p=0.1, inplace=False)
      (layer_norm1): CNNLayerNorm(
        (layer_norm): LayerNorm((40,), eps=1e-05, elementwise_affine=True)
      )
      (layer_norm2): CNNLayerNorm(
        (layer_norm): LayerNorm((40,), eps=1e-05, elementwise_affine=True)
      )
    )
  )
  (fully_connected): Linear(in_features=1280, out_features=512, bias=True)
  (birnn_layers): Sequential(
    (0): BidirectionalGRU(
      (BiGRU): GRU(512, 512, batch_first=True, bidirectional=True)
      (layer_norm): LayerNorm((512,), eps=1e-05, elementwise_affine=True)
      (dropout): Dropout(p=0.1, inplace=False)
    )
    (1): BidirectionalGRU(
      (BiGRU): GRU(1024, 512, batch_first=True, bidirectional=True)
      (layer_norm): LayerNorm((1024,), eps=1e-05, elementwise_affine=True)
      (dropout): Dropout(p=0.1, inplace=False)
    )
  )
  (classifier): Sequential(
    (0): Linear(in_features=1024, out_features=512, bias=True)
    (1): GELU(approximate='none')
    (2): Dropout(p=0.1, inplace=False)
    (3): Linear(in_features=512, out_features=30, bias=True)
  )
)
Model Parameters: 9113374
Features Shape: torch.Size([32, 501, 80])
Labels Shape: torch.Size([32, 76])
Features Length: tensor([501, 501, 501, 501, 501, 501, 501, 501, 501, 501, 501, 501, 501, 501,
        501, 501, 501, 501, 501, 501, 501, 501, 501, 501, 501, 501, 501, 501,
        501, 501, 501, 501])
Shape: torch.Size([32])
Labels Length: tensor([75, 63, 52, 65, 68, 71, 38, 54, 42, 53, 59, 68, 74, 67, 56, 57, 51, 56,
…
