Model Summary: SpeechRecognitionModel(
  (rescnn_layers): Sequential(
    (0): Conv2d(1, 32, kernel_size=(3, 3), stride=(2, 2), padding=(1, 1))
    (1): ResidualCNN(
      (cnn1): Conv2d(32, 32, kernel_size=(3, 3), stride=(1, 1), padding=(1, 1))
      (cnn2): Conv2d(32, 32, kernel_size=(3, 3), stride=(1, 1), padding=(1, 1))
      (dropout): Dropout(p=0.1, inplace=False)
      (layer_norm): CNNLayerNorm(
        (layer_norm): LayerNorm((40,), eps=1e-05, elementwise_affine=True)
      )
    )
    (2): ResidualCNN(
      (cnn1): Conv2d(32, 32, kernel_size=(3, 3), stride=(1, 1), padding=(1, 1))
      (cnn2): Conv2d(32, 32, kernel_size=(3, 3), stride=(1, 1), padding=(1, 1))
      (dropout): Dropout(p=0.1, inplace=False)
      (layer_norm): CNNLayerNorm(
        (layer_norm): LayerNorm((40,), eps=1e-05, elementwise_affine=True)
      )
    )
  )
  (fully_connected): Linear(in_features=1280, out_features=512, bias=True)
  (birnn_layers): Sequential(
    (0): BidirectionalGRU(
      (BiGRU): GRU(512, 512, batch_first=True, bidirectional=True)
      (layer_norm): LayerNorm((512,), eps=1e-05, elementwise_affine=True)
      (dropout): Dropout(p=0.1, inplace=False)
    )
    (1): BidirectionalGRU(
      (BiGRU): GRU(1024, 512, batch_first=True, bidirectional=True)
      (layer_norm): LayerNorm((1024,), eps=1e-05, elementwise_affine=True)
      (dropout): Dropout(p=0.1, inplace=False)
    )
    (2): BidirectionalGRU(
      (BiGRU): GRU(1024, 512, batch_first=True, bidirectional=True)
      (layer_norm): LayerNorm((1024,), eps=1e-05, elementwise_affine=True)
      (dropout): Dropout(p=0.1, inplace=False)
    )
  )
  (classifier): Sequential(
    (0): Linear(in_features=1024, out_features=512, bias=True)
    (1): GELU(approximate='none')
    (2): Dropout(p=0.1, inplace=False)
    (3): Linear(in_features=512, out_features=1000, bias=True)
  )
)
Model Parameters: 14337608
Features Shape: torch.Size([64, 1, 80, 501])
Labels Shape: torch.Size([64, 30])
Features Length: tensor([501, 501, 501, 501, 501, 501, 501, 501, 501, 501, 501, 501, 501, 501,
        501, 501, 501, 501, 501, 501, 501, 501, 501, 501, 501, 501, 501, 501,
        501, 501, 501, 501, 501, 501, 501, 501, 501, 501, 501, 501, 501, 501,
…
        501, 501, 501, 501, 501, 501, 501, 501, 501, 501, 501, 501, 501, 501,
        501, 501, 501, 501, 501, 501, 501, 501, 501, 501, 501, 501, 501, 501,
        501, 501, 501, 501, 501, 501, 501, 501])
Shape: torch.Size([64])
Labels Length: tensor([22, 17, 26, 25, 21, 21, 20, 21, 20, 21, 20, 28, 16, 22, 16, 22, 26, 17,
        29, 20, 12, 30, 21, 24, 19, 19, 15, 15, 27, 17, 26, 15, 33, 25, 22, 17,
        30, 20, 17, 17, 16, 16, 21, 24, 27, 21, 23, 24, 27, 22, 16, 22, 14, 26,
        20, 22, 31, 22, 19, 16, 26, 14, 23, 27])
Shape: torch.Size([64])
[Epoch 1] - [Batch 1 / 20]
Model Summary: SpeechRecognitionModel(
  (rescnn_layers): Sequential(
    (0): Conv2d(1, 32, kernel_size=(3, 3), stride=(2, 2), padding=(1, 1))
    (1): ResidualCNN(
      (cnn1): Conv2d(32, 32, kernel_size=(3, 3), stride=(1, 1), padding=(1, 1))
      (cnn2): Conv2d(32, 32, kernel_size=(3, 3), stride=(1, 1), padding=(1, 1))
      (dropout): Dropout(p=0.1, inplace=False)
      (layer_norm): CNNLayerNorm(
        (layer_norm): LayerNorm((40,), eps=1e-05, elementwise_affine=True)
      )
    )
    (2): ResidualCNN(
      (cnn1): Conv2d(32, 32, kernel_size=(3, 3), stride=(1, 1), padding=(1, 1))
      (cnn2): Conv2d(32, 32, kernel_size=(3, 3), stride=(1, 1), padding=(1, 1))
      (dropout): Dropout(p=0.1, inplace=False)
      (layer_norm): CNNLayerNorm(
        (layer_norm): LayerNorm((40,), eps=1e-05, elementwise_affine=True)
      )
    )
  )
  (fully_connected): Linear(in_features=1280, out_features=512, bias=True)
  (birnn_layers): Sequential(
    (0): BidirectionalGRU(
      (BiGRU): GRU(512, 512, batch_first=True, bidirectional=True)
      (layer_norm): LayerNorm((512,), eps=1e-05, elementwise_affine=True)
      (dropout): Dropout(p=0.1, inplace=False)
    )
    (1): BidirectionalGRU(
      (BiGRU): GRU(1024, 512, batch_first=True, bidirectional=True)
      (layer_norm): LayerNorm((1024,), eps=1e-05, elementwise_affine=True)
      (dropout): Dropout(p=0.1, inplace=False)
    )
    (2): BidirectionalGRU(
      (BiGRU): GRU(1024, 512, batch_first=True, bidirectional=True)
      (layer_norm): LayerNorm((1024,), eps=1e-05, elementwise_affine=True)
      (dropout): Dropout(p=0.1, inplace=False)
    )
  )
  (classifier): Sequential(
    (0): Linear(in_features=80, out_features=40, bias=True)
    (1): GELU(approximate='none')
    (2): Dropout(p=0.1, inplace=False)
    (3): Linear(in_features=40, out_features=1000, bias=True)
  )
  (test_gru): GRU(80, 40, num_layers=2, batch_first=True, dropout=0.1, bidirectional=True)
)
Model Parameters: 13402608
Features Shape: torch.Size([64, 80, 501])
Labels Shape: torch.Size([64, 34])
Features Length: tensor([501, 501, 501, 501, 501, 501, 501, 501, 501, 501, 501, 501, 501, 501,
        501, 501, 501, 501, 501, 501, 501, 501, 501, 501, 501, 501, 501, 501,
…
