Model Summary: SpeechRecognitionModel(
  (rescnn_layers): Sequential(
    (0): Conv2d(1, 32, kernel_size=(3, 3), stride=(2, 2), padding=(1, 1))
    (1): ResidualCNN(
      (cnn1): Conv2d(32, 32, kernel_size=(3, 3), stride=(1, 1), padding=(1, 1))
      (cnn2): Conv2d(32, 32, kernel_size=(3, 3), stride=(1, 1), padding=(1, 1))
      (dropout): Dropout(p=0.1, inplace=False)
      (layer_norm): CNNLayerNorm(
        (layer_norm): LayerNorm((40,), eps=1e-05, elementwise_affine=True)
      )
    )
    (2): ResidualCNN(
      (cnn1): Conv2d(32, 32, kernel_size=(3, 3), stride=(1, 1), padding=(1, 1))
      (cnn2): Conv2d(32, 32, kernel_size=(3, 3), stride=(1, 1), padding=(1, 1))
      (dropout): Dropout(p=0.1, inplace=False)
      (layer_norm): CNNLayerNorm(
        (layer_norm): LayerNorm((40,), eps=1e-05, elementwise_affine=True)
      )
    )
  )
  (fully_connected): Linear(in_features=1280, out_features=512, bias=True)
  (birnn_layers): Sequential(
    (0): BidirectionalGRU(
      (BiGRU): GRU(512, 512, batch_first=True, bidirectional=True)
      (layer_norm): LayerNorm((512,), eps=1e-05, elementwise_affine=True)
      (dropout): Dropout(p=0.1, inplace=False)
    )
    (1): BidirectionalGRU(
      (BiGRU): GRU(1024, 512, batch_first=True, bidirectional=True)
      (layer_norm): LayerNorm((1024,), eps=1e-05, elementwise_affine=True)
      (dropout): Dropout(p=0.1, inplace=False)
    )
  )
  (classifier): Sequential(
    (0): Linear(in_features=1024, out_features=512, bias=True)
    (1): GELU(approximate='none')
    (2): Dropout(p=0.1, inplace=False)
    (3): Linear(in_features=512, out_features=30, bias=True)
  )
)
Model Parameters: 9113214
Features Shape: torch.Size([32, 501, 80])
Labels Shape: torch.Size([32, 92])
Features Length: tensor([501, 501, 501, 501, 501, 501, 501, 501, 501, 501, 501, 501, 501, 501,
        501, 501, 501, 501, 501, 501, 501, 501, 501, 501, 501, 501, 501, 501,
        501, 501, 501, 501])
Shape: torch.Size([32])
Labels Length: tensor([92, 51, 79, 50, 62, 51, 73, 79, 52, 66, 48, 49, 49, 73, 60, 45, 72, 71,
…
